vllm configs dir: /home/exouser/llm_multiplexing_stage_2/.venv/lib/python3.10/site-packages/vllm/model_executor/layers/fused_moe/configs

=== tuning Mixtral 8x7B (E=8, N=14336) ===
[2m[36m(pid=6188) [0m:  85%|████████▌ | 1.63k/1.92k [28:00<03:38, 1.32it/s]                                                                 [36m(BenchmarkWorker pid=6188)[0m       %111 = arith.cmpi slt, %65, %110 : tensor<1x64xi32>
[2m[36m(pid=6188) [0m:  85%|████████▌ | 1.63k/1.92k [28:00<03:38, 1.32it/s]                                                                 [36m(BenchmarkWorker pid=6188)[0m       %112 = tt.broadcast %107 : tensor<256x1xi1> -> tensor<256x64xi1>
[2m[36m(pid=6188) [0m:  85%|████████▌ | 1.63k/1.92k [28:00<03:38, 1.32it/s]                                                                 [36m(BenchmarkWorker pid=6188)[0m       %113 = tt.broadcast %111 : tensor<1x64xi1> -> tensor<256x64xi1>
[2m[36m(pid=6188) [0m:  85%|████████▌ | 1.63k/1.92k [28:00<03:38, 1.32it/s]                                                                 [36m(BenchmarkWorker pid=6188)[0m       %114 = arith.andi %112, %113 : tensor<256x64xi1>
[2m[36m(pid=6188) [0m:  85%|████████▌ | 1.63k/1.92k [28:00<03:38, 1.32it/s]                                                                 [36m(BenchmarkWorker pid=6188)[0m       %115 = tt.load %arg23, %114, %cst_0 : tensor<256x64x!tt.ptr<f16>>
[2m[36m(pid=6188) [0m:  85%|████████▌ | 1.63k/1.92k [28:00<03:38, 1.32it/s]                                                                 [36m(BenchmarkWorker pid=6188)[0m       %116 = tt.splat %109 : i32 -> tensor<64x1xi32>
[2m[36m(pid=6188) [0m:  85%|████████▌ | 1.63k/1.92k [28:00<03:38, 1.32it/s]                                                                 [36m(BenchmarkWorker pid=6188)[0m       %117 = arith.cmpi slt, %75, %116 : tensor<64x1xi32>
[2m[36m(pid=6188) [0m:  85%|████████▌ | 1.63k/1.92k [28:00<03:38, 1.32it/s]                                                                 [36m(BenchmarkWorker pid=6188)[0m       %118 = tt.broadcast %117 : tensor<64x1xi1> -> tensor<64x64xi1>
[2m[36m(pid=6188) [0m:  85%|████████▌ | 1.63k/1.92k [28:00<03:38, 1.32it/s]                                                                 [36m(BenchmarkWorker pid=6188)[0m       %119 = tt.load %arg24, %118, %cst : tensor<64x64x!tt.ptr<f16>>
[2m[36m(pid=6188) [0m:  85%|████████▌ | 1.63k/1.92k [28:00<03:38, 1.32it/s]                                                                 [36m(BenchmarkWorker pid=6188)[0m       %120 = tt.dot %115, %119, %arg25, inputPrecision = tf32 : tensor<256x64xf16> * tensor<64x64xf16> -> tensor<256x64xf32>
[2m[36m(pid=6188) [0m:  85%|████████▌ | 1.63k/1.92k [28:00<03:38, 1.32it/s]                                                                 [36m(BenchmarkWorker pid=6188)[0m       %121 = tt.addptr %arg23, %cst_2 : tensor<256x64x!tt.ptr<f16>>, tensor<256x64xi32>
[2m[36m(pid=6188) [0m:  85%|████████▌ | 1.63k/1.92k [28:00<03:38, 1.32it/s]                                                                 [36m(BenchmarkWorker pid=6188)[0m       %122 = tt.addptr %arg24, %cst_1 : tensor<64x64x!tt.ptr<f16>>, tensor<64x64xi32>
[2m[36m(pid=6188) [0m:  85%|████████▌ | 1.63k/1.92k [28:00<03:38, 1.32it/s]                                                                 [36m(BenchmarkWorker pid=6188)[0m       scf.yield %121, %122, %120 : tensor<256x64x!tt.ptr<f16>>, tensor<64x64x!tt.ptr<f16>>, tensor<256x64xf32>
[2m[36m(pid=6188) [0m:  85%|████████▌ | 1.63k/1.92k [28:00<03:38, 1.32it/s]                                                                 [36m(BenchmarkWorker pid=6188)[0m     }
[2m[36m(pid=6188) [0m:  85%|████████▌ | 1.63k/1.92k [28:00<03:38, 1.32it/s]                                                                 [36m(BenchmarkWorker pid=6188)[0m     %89 = arith.truncf %88#2 : tensor<256x64xf32> to tensor<256x64xf16>
[2m[36m(pid=6188) [0m:  85%|████████▌ | 1.63k/1.92k [28:00<03:38, 1.32it/s]                                                                 [36m(BenchmarkWorker pid=6188)[0m     %90 = tt.splat %51 : i32 -> tensor<64xi32>
[2m[36m(pid=6188) [0m:  85%|████████▌ | 1.63k/1.92k [28:00<03:38, 1.32it/s]                                                                 [36m(BenchmarkWorker pid=6188)[0m     %91 = arith.addi %90, %52 : tensor<64xi32>
[2m[36m(pid=6188) [0m:  85%|████████▌ | 1.63k/1.92k [28:00<03:38, 1.32it/s]                                                                 [36m(BenchmarkWorker pid=6188)[0m     %92 = arith.extsi %arg14 : i32 to i64
[2m[36m(pid=6188) [0m:  85%|████████▌ | 1.63k/1.92k [28:00<03:38, 1.32it/s]                                                                 [36m(BenchmarkWorker pid=6188)[0m     %93 = tt.splat %92 : i64 -> tensor<256x1xi64>
[2m[36m(pid=6188) [0m:  85%|████████▌ | 1.63k/1.92k [28:00<03:38, 1.32it/s]                                                                 [36m(BenchmarkWorker pid=6188)[0m     %94 = arith.muli %93, %60 : tensor<256x1xi64>
[2m[36m(pid=6188) [0m:  85%|████████▌ | 1.63k/1.92k [28:00<03:38, 1.32it/s]                                                                 [36m(BenchmarkWorker pid=6188)[0m     %95 = tt.splat %arg2 : !tt.ptr<f16> -> tensor<256x1x!tt.ptr<f16>>
[2m[36m(pid=6188) [0m:  85%|████████▌ | 1.63k/1.92k [28:00<03:38, 1.32it/s]                                                                 [36m(BenchmarkWorker pid=6188)[0m     %96 = tt.addptr %95, %94 : tensor<256x1x!tt.ptr<f16>>, tensor<256x1xi64>
[2m[36m(pid=6188) [0m:  85%|████████▌ | 1.63k/1.92k [28:00<03:38, 1.32it/s]                                                                 [36m(BenchmarkWorker pid=6188)[0m     %97 = tt.expand_dims %91 {axis = 0 : i32} : tensor<64xi32> -> tensor<1x64xi32>
[2m[36m(pid=6188) [0m:  85%|████████▌ | 1.63k/1.92k [28:00<03:38, 1.32it/s]                                                                 [36m(BenchmarkWorker pid=6188)[0m     %98 = tt.broadcast %96 : tensor<256x1x!tt.ptr<f16>> -> tensor<256x64x!tt.ptr<f16>>
[2m[36m(pid=6188) [0m:  85%|████████▌ | 1.63k/1.92k [28:00<03:38, 1.32it/s]                                                                 [36m(BenchmarkWorker pid=6188)[0m     %99 = tt.broadcast %97 : tensor<1x64xi32> -> tensor<256x64xi32>
[2m[36m(pid=6188) [0m:  85%|████████▌ | 1.63k/1.92k [28:00<03:38, 1.32it/s]                                                                 [36m(BenchmarkWorker pid=6188)[0m     %100 = tt.addptr %98, %99 : tensor<256x64x!tt.ptr<f16>>, tensor<256x64xi32>
[2m[36m(pid=6188) [0m:  85%|████████▌ | 1.63k/1.92k [28:00<03:38, 1.32it/s]                                                                 [36m(BenchmarkWorker pid=6188)[0m     %101 = tt.expand_dims %26 {axis = 1 : i32} : tensor<256xi1> -> tensor<256x1xi1>
[2m[36m(pid=6188) [0m:  85%|████████▌ | 1.63k/1.92k [28:00<03:38, 1.32it/s]                                                                 [36m(BenchmarkWorker pid=6188)[0m     %102 = tt.splat %arg7 : i32 -> tensor<1x64xi32>
[2m[36m(pid=6188) [0m:  85%|████████▌ | 1.63k/1.92k [28:00<03:38, 1.32it/s]                                                                 [36m(BenchmarkWorker pid=6188)[0m     %103 = arith.cmpi slt, %97, %102 : tensor<1x64xi32>
[2m[36m(pid=6188) [0m:  85%|████████▌ | 1.63k/1.92k [28:00<03:38, 1.32it/s]                                                                 [36m(BenchmarkWorker pid=6188)[0m     %104 = tt.broadcast %101 : tensor<256x1xi1> -> tensor<256x64xi1>
[2m[36m(pid=6188) [0m:  85%|████████▌ | 1.63k/1.92k [28:00<03:38, 1.32it/s]                                                                 [36m(BenchmarkWorker pid=6188)[0m     %105 = tt.broadcast %103 : tensor<1x64xi1> -> tensor<256x64xi1>
[2m[36m(pid=6188) [0m:  85%|████████▌ | 1.63k/1.92k [28:00<03:38, 1.32it/s]                                                                 [36m(BenchmarkWorker pid=6188)[0m     %106 = arith.andi %104, %105 : tensor<256x64xi1>
[2m[36m(pid=6188) [0m:  85%|████████▌ | 1.63k/1.92k [28:00<03:38, 1.32it/s]                                                                 [36m(BenchmarkWorker pid=6188)[0m     tt.store %100, %89, %106 : tensor<256x64x!tt.ptr<f16>>
[2m[36m(pid=6188) [0m:  85%|████████▌ | 1.63k/1.92k [28:00<03:38, 1.32it/s]                                                                 [36m(BenchmarkWorker pid=6188)[0m     tt.return
[2m[36m(pid=6188) [0m:  85%|████████▌ | 1.63k/1.92k [28:00<03:38, 1.32it/s]                                                                 [36m(BenchmarkWorker pid=6188)[0m   }
[2m[36m(pid=6188) [0m:  85%|████████▌ | 1.63k/1.92k [28:00<03:38, 1.32it/s]                                                                 [36m(BenchmarkWorker pid=6188)[0m }
[2m[36m(pid=6188) [0m:  85%|████████▌ | 1.63k/1.92k [28:00<03:38, 1.32it/s]                                                                 [36m(BenchmarkWorker pid=6188)[0m 
[2m[36m(pid=6188) [0m:  85%|████████▌ | 1.63k/1.92k [28:00<03:38, 1.32it/s]                                                                 [36m(BenchmarkWorker pid=6188)[0m {-#
[2m[36m(pid=6188) [0m:  85%|████████▌ | 1.63k/1.92k [28:00<03:38, 1.32it/s]                                                                 [36m(BenchmarkWorker pid=6188)[0m   external_resources: {
[2m[36m(pid=6188) [0m:  85%|████████▌ | 1.63k/1.92k [28:00<03:38, 1.32it/s]                                                                 [36m(BenchmarkWorker pid=6188)[0m     mlir_reproducer: {
[2m[36m(pid=6188) [0m:  85%|████████▌ | 1.63k/1.92k [28:00<03:38, 1.32it/s]                                                                 [36m(BenchmarkWorker pid=6188)[0m       pipeline: "builtin.module(convert-triton-to-tritongpu{enable-source-remat=false num-ctas=1 num-warps=4 target=cuda:90 threads-per-warp=32}, tritongpu-coalesce, tritongpu-F32DotTC{emu-tf32=true}, triton-nvidia-gpu-plan-cta, tritongpu-remove-layout-conversions, tritongpu-optimize-thread-locality, tritongpu-accelerate-matmul, tritongpu-remove-layout-conversions, tritongpu-optimize-dot-operands{hoist-layout-conversion=true}, triton-nvidia-optimize-descriptor-encoding, triton-loop-aware-cse, tritongpu-fuse-nested-loops, canonicalize{  max-iterations=10 max-num-rewrites=-1 region-simplify=normal test-convergence=false top-down=true}, triton-licm, canonicalize{  max-iterations=10 max-num-rewrites=-1 region-simplify=normal test-convergence=false top-down=true}, tritongpu-combine-tensor-select-and-if, nvgpu-warp-specialization{dump-intermediate-steps=false num-stages=2}, tritongpu-assign-latencies{num-stages=2}, tritongpu-schedule-loops, tritongpu-pipeline{dump-intermediate-steps=false num-stages=2}, canonicalize{  max-iterations=10 max-num-rewrites=-1 region-simplify=normal test-convergence=false top-down=true}, triton-loop-aware-cse, tritongpu-prefetch, tritongpu-optimize-dot-operands{hoist-layout-conversion=true}, tritongpu-coalesce-async-copy, triton-nvidia-optimize-tmem-layouts, triton-nvidia-tma-lowering, tritongpu-remove-layout-conversions, triton-nvidia-interleave-tmem, tritongpu-reduce-data-duplication, tritongpu-reorder-instructions, triton-loop-aware-cse, symbol-dce, triton-nvidia-gpu-fence-insertion{compute-capability=90}, triton-nvidia-mma-lowering, sccp, cse, canonicalize{  max-iterations=10 max-num-rewrites=-1 region-simplify=normal test-convergence=false top-down=true})",
[2m[36m(pid=6188) [0m:  85%|████████▌ | 1.63k/1.92k [28:00<03:38, 1.32it/s]                                                                 [36m(BenchmarkWorker pid=6188)[0m       disable_threading: true,
[2m[36m(pid=6188) [0m:  85%|████████▌ | 1.63k/1.92k [28:00<03:38, 1.32it/s]                                                                 [36m(BenchmarkWorker pid=6188)[0m       verify_each: true
[2m[36m(pid=6188) [0m:  85%|████████▌ | 1.63k/1.92k [28:00<03:38, 1.32it/s]                                                                 [36m(BenchmarkWorker pid=6188)[0m     }
[2m[36m(pid=6188) [0m:  85%|████████▌ | 1.63k/1.92k [28:00<03:38, 1.32it/s]                                                                 [36m(BenchmarkWorker pid=6188)[0m   }
[2m[36m(pid=6188) [0m:  85%|████████▌ | 1.63k/1.92k [28:00<03:38, 1.32it/s]                                                                 [36m(BenchmarkWorker pid=6188)[0m #-}
[2m[36m(pid=6188) [0m:  85%|████████▌ | 1.63k/1.92k [28:00<03:38, 1.32it/s]                                                                 [36m(BenchmarkWorker pid=6188)[0m /home/exouser/llm_multiplexing_stage_2/.venv/lib/python3.10/site-packages/vllm/model_executor/layers/fused_moe/fused_moe.py:312:0: error: Failures have been detected while processing an MLIR pass pipeline
[2m[36m(pid=6188) [0m:  85%|████████▌ | 1.63k/1.92k [28:00<03:38, 1.32it/s]                                                                 [36m(BenchmarkWorker pid=6188)[0m /home/exouser/llm_multiplexing_stage_2/.venv/lib/python3.10/site-packages/vllm/model_executor/layers/fused_moe/fused_moe.py:312:0: note: Pipeline failed while executing [`TritonGPURemoveLayoutConversions` on 'builtin.module' operation]: reproducer generated at `std::errs, please share the reproducer above with Triton project.`
[2m[36m(pid=6188) [0m:  85%|████████▌ | 1.63k/1.92k [28:00<03:38, 1.32it/s][2m[36m(pid=6188) [0m:   0%|          | 0.00/1.92k [00:00<?, ?it/s][2m[36m(pid=6188) [0m:  85%|████████▌ | 1.63k/1.92k [28:02<04:55, 1.03s/it]
[2m[36m(pid=6188) [0m:   0%|          | 1.00/1.92k [00:02<1:10:39, 2.21s/it]

real	28m16.856s
user	1m19.319s
sys	0m30.602s
